Model: "sequential_1"
_________________________________________________________________
Layer (type)                 Output Shape              Param #   
=================================================================
conv2d_1 (Conv2D)            (None, 224, 224, 32)      896       
_________________________________________________________________
max_pooling2d_1 (MaxPooling2 (None, 112, 112, 32)      0         
_________________________________________________________________
conv2d_2 (Conv2D)            (None, 112, 112, 64)      18496     
_________________________________________________________________
max_pooling2d_2 (MaxPooling2 (None, 56, 56, 64)        0         
_________________________________________________________________
conv2d_3 (Conv2D)            (None, 56, 56, 128)       73856     
_________________________________________________________________
max_pooling2d_3 (MaxPooling2 (None, 28, 28, 128)       0         
_________________________________________________________________
conv2d_4 (Conv2D)            (None, 28, 28, 128)       147584    
_________________________________________________________________
max_pooling2d_4 (MaxPooling2 (None, 14, 14, 128)       0         
_________________________________________________________________
flatten_1 (Flatten)          (None, 25088)             0         
_________________________________________________________________
dense_1 (Dense)              (None, 512)               12845568  
_________________________________________________________________
dropout_1 (Dropout)          (None, 512)               0         
_________________________________________________________________
dense_2 (Dense)              (None, 5)                 2565      
=================================================================
Total params: 13,088,965
Trainable params: 13,088,965
Non-trainable params: 0
_________________________________________________________________


{
    "name": "conv2d_1",
    "trainable": true,
    "batch_input_shape": [
        null,
        224,
        224,
        3
    ],
    "dtype": "float32",
    "filters": 32,
    "kernel_size": [
…
