Model: "sequential_1"
_________________________________________________________________
Layer (type)                 Output Shape              Param #   
=================================================================
conv2d_1 (Conv2D)            (None, 224, 224, 32)      1568      
_________________________________________________________________
max_pooling2d_1 (MaxPooling2 (None, 74, 74, 32)        0         
_________________________________________________________________
conv2d_2 (Conv2D)            (None, 74, 74, 64)        32832     
_________________________________________________________________
max_pooling2d_2 (MaxPooling2 (None, 24, 24, 64)        0         
_________________________________________________________________
conv2d_3 (Conv2D)            (None, 24, 24, 128)       131200    
_________________________________________________________________
max_pooling2d_3 (MaxPooling2 (None, 8, 8, 128)         0         
_________________________________________________________________
conv2d_4 (Conv2D)            (None, 8, 8, 128)         262272    
_________________________________________________________________
max_pooling2d_4 (MaxPooling2 (None, 2, 2, 128)         0         
_________________________________________________________________
flatten_1 (Flatten)          (None, 512)               0         
_________________________________________________________________
dense_1 (Dense)              (None, 512)               262656    
_________________________________________________________________
dropout_1 (Dropout)          (None, 512)               0         
_________________________________________________________________
dense_2 (Dense)              (None, 5)                 2565      
=================================================================
Total params: 693,093
Trainable params: 693,093
Non-trainable params: 0
_________________________________________________________________


{
    "name": "conv2d_1",
    "trainable": true,
    "batch_input_shape": [
        null,
        224,
        224,
        3
    ],
    "dtype": "float32",
    "filters": 32,
    "kernel_size": [
…
